{"format":"layers-model","generatedBy":"keras","convertedBy":"SunSign exporter (Keras-2 compat)","modelTopology":{"class_name":"Sequential","config":{"name":"sequential","layers":[{"class_name":"Dense","config":{"name":"dense","trainable":true,"dtype":"float32","units":512,"activation":"relu","use_bias":true,"kernel_initializer":{"class_name":"GlorotUniform","config":{"seed":null}},"bias_initializer":{"class_name":"Zeros","config":{}},"kernel_regularizer":null,"bias_regularizer":null,"activity_regularizer":null,"kernel_constraint":null,"bias_constraint":null,"batch_input_shape":[null,63]}},{"class_name":"BatchNormalization","config":{"name":"batch_normalization","trainable":true,"dtype":"float32","axis":-1,"momentum":0.99,"epsilon":0.001,"center":true,"scale":true,"beta_initializer":{"class_name":"Zeros","config":{}},"gamma_initializer":{"class_name":"Ones","config":{}},"moving_mean_initializer":{"class_name":"Zeros","config":{}},"moving_variance_initializer":{"class_name":"Ones","config":{}},"beta_regularizer":null,"gamma_regularizer":null,"beta_constraint":null,"gamma_constraint":null}},{"class_name":"Dropout","config":{"name":"dropout","trainable":true,"dtype":"float32","rate":0.4,"noise_shape":null,"seed":null}},{"class_name":"Dense","config":{"name":"dense_1","trainable":true,"dtype":"float32","units":256,"activation":"relu","use_bias":true,"kernel_initializer":{"class_name":"GlorotUniform","config":{"seed":null}},"bias_initializer":{"class_name":"Zeros","config":{}},"kernel_regularizer":null,"bias_regularizer":null,"activity_regularizer":null,"kernel_constraint":null,"bias_constraint":null}},{"class_name":"BatchNormalization","config":{"name":"batch_normalization_1","trainable":true,"dtype":"float32","axis":-1,"momentum":0.99,"epsilon":0.001,"center":true,"scale":true,"beta_initializer":{"class_name":"Zeros","config":{}},"gamma_initializer":{"class_name":"Ones","config":{}},"moving_mean_initializer":{"class_name":"Zeros","config":{}},"moving_variance_initializer":{"class_name":"Ones","config":{}},"beta_regularizer":null,"gamma_regularizer":null,"beta_constraint":null,"gamma_constraint":null}},{"class_name":"Dropout","config":{"name":"dropout_1","trainable":true,"dtype":"float32","rate":0.35,"noise_shape":null,"seed":null}},{"class_name":"Dense","config":{"name":"dense_2","trainable":true,"dtype":"float32","units":128,"activation":"relu","use_bias":true,"kernel_initializer":{"class_name":"GlorotUniform","config":{"seed":null}},"bias_initializer":{"class_name":"Zeros","config":{}},"kernel_regularizer":null,"bias_regularizer":null,"activity_regularizer":null,"kernel_constraint":null,"bias_constraint":null}},{"class_name":"BatchNormalization","config":{"name":"batch_normalization_2","trainable":true,"dtype":"float32","axis":-1,"momentum":0.99,"epsilon":0.001,"center":true,"scale":true,"beta_initializer":{"class_name":"Zeros","config":{}},"gamma_initializer":{"class_name":"Ones","config":{}},"moving_mean_initializer":{"class_name":"Zeros","config":{}},"moving_variance_initializer":{"class_name":"Ones","config":{}},"beta_regularizer":null,"gamma_regularizer":null,"beta_constraint":null,"gamma_constraint":null}},{"class_name":"Dropout","config":{"name":"dropout_2","trainable":true,"dtype":"float32","rate":0.3,"noise_shape":null,"seed":null}},{"class_name":"Dense","config":{"name":"dense_3","trainable":true,"dtype":"float32","units":64,"activation":"relu","use_bias":true,"kernel_initializer":{"class_name":"GlorotUniform","config":{"seed":null}},"bias_initializer":{"class_name":"Zeros","config":{}},"kernel_regularizer":null,"bias_regularizer":null,"activity_regularizer":null,"kernel_constraint":null,"bias_constraint":null}},{"class_name":"Dropout","config":{"name":"dropout_3","trainable":true,"dtype":"float32","rate":0.2,"noise_shape":null,"seed":null}},{"class_name":"Dense","config":{"name":"dense_4","trainable":true,"dtype":"float32","units":32,"activation":"softmax","use_bias":true,"kernel_initializer":{"class_name":"GlorotUniform","config":{"seed":null}},"bias_initializer":{"class_name":"Zeros","config":{}},"kernel_regularizer":null,"bias_regularizer":null,"activity_regularizer":null,"kernel_constraint":null,"bias_constraint":null}}]},"keras_version":"2.4.0","backend":"tensorflow"},"weightsManifest":[{"paths":["group1-shard1of1.bin"],"weights":[{"name":"dense/kernel","shape":[63,512],"dtype":"float32"},{"name":"dense/bias","shape":[512],"dtype":"float32"},{"name":"batch_normalization/gamma","shape":[512],"dtype":"float32"},{"name":"batch_normalization/beta","shape":[512],"dtype":"float32"},{"name":"batch_normalization/moving_mean","shape":[512],"dtype":"float32"},{"name":"batch_normalization/moving_variance","shape":[512],"dtype":"float32"},{"name":"dense_1/kernel","shape":[512,256],"dtype":"float32"},{"name":"dense_1/bias","shape":[256],"dtype":"float32"},{"name":"batch_normalization_1/gamma","shape":[256],"dtype":"float32"},{"name":"batch_normalization_1/beta","shape":[256],"dtype":"float32"},{"name":"batch_normalization_1/moving_mean","shape":[256],"dtype":"float32"},{"name":"batch_normalization_1/moving_variance","shape":[256],"dtype":"float32"},{"name":"dense_2/kernel","shape":[256,128],"dtype":"float32"},{"name":"dense_2/bias","shape":[128],"dtype":"float32"},{"name":"batch_normalization_2/gamma","shape":[128],"dtype":"float32"},{"name":"batch_normalization_2/beta","shape":[128],"dtype":"float32"},{"name":"batch_normalization_2/moving_mean","shape":[128],"dtype":"float32"},{"name":"batch_normalization_2/moving_variance","shape":[128],"dtype":"float32"},{"name":"dense_3/kernel","shape":[128,64],"dtype":"float32"},{"name":"dense_3/bias","shape":[64],"dtype":"float32"},{"name":"dense_4/kernel","shape":[64,32],"dtype":"float32"},{"name":"dense_4/bias","shape":[32],"dtype":"float32"}]}]}